model_best_weights.pth (torch, 10102 bytes, 6 tensors)

hidden1.weight f4 [30, 38]
1.2733816 0.8648847 0.898148 0.830525 0.574769 -0.07214501 1.4661758 0.91742116
-0.22664423 -1.039035 0.7008517 -0.39802945 0.19590792 -0.34247595 1.0734068 0.30310556
-0.25885564 -0.36783865 0.66629547 0.85323143 -0.39911267 0.33399087 0.27976245 0.20978558
-0.15176477 0.31545863 -0.41191396 0.7847157 -0.36982074 0.95623636 -0.40203574 1.1948094
0.021568092 1.3309847 0.15153795 0.013610094 -0.20130579 0.109600514 1.3045021 1.4113189
0.98378086 0.9640668 0.5738083 0.42099854 0.9833772 0.9432875 -0.09259046 -0.26713905
0.9339705 -0.06294984 0.8219104 0.1844771 1.0848222 0.76042336 0.13851155 0.23130275
0.8344465 1.3373052 0.3651998 1.0641819 0.30837515 0.32594615 0.05117512 0.30937368
-0.068742536 0.102193385 -0.52302194 -0.11044135 -0.47916695 0.46129113 -0.5271598 0.41652882
-0.012244096 0.060131457 -0.010500874 0.011087003 -1.1731328 -1.3703964 -0.9251429 -0.97297
-0.60721534 -0.35333022 -1.1628464 -1.1439965 -0.0148692755 0.59860885 -0.5716355 0.052407965
-0.6093234 -0.25723988 -1.1770277 -0.7715262 0.13519679 -0.13581155 -1.0370824 -1.7269918
-0.073209554 -0.98644906 0.026125865 -0.4335719 -0.017351648 -0.26451012 0.654066 -0.9680611
0.52637714 -0.6447694 0.723468 -0.8727704 0.19251151 -1.2362126 -0.10473444 -0.063520566
0.114366546 0.05001392 -0.15522446 0.036794648 -0.081364214 0.12785695 -0.0098570585 0.13889115
-0.12627508 -0.110905126 -0.003713578 0.07511407 0.11704062 -0.06911423 0.044416055 -0.16110323
-0.06365004 -0.020810083 -0.11043829 -0.15398687 -0.15795991 0.039173916 -0.120448716 0.03865193
0.028522298 0.03248927 0.15612714 -0.04297974 -0.11958547 0.09172602 0.0531698 0.12958662
-0.15441437 -0.01279667 -0.12947914 0.13672371 -0.020221815 -0.04609655 -0.036925092 -0.06129247
0.7259865 -0.38267422 0.46015513 -0.47171253 0.4921348 -0.5730207 0.9171298 0.023072336
-0.123113774 -1.3219426 0.32062283 -0.64813024 -0.23986864 -1.0256507 0.39115006 -0.5964592
-0.65527683 -0.9397323 0.1895719 -0.5020089 -0.75777626 -0.86053044 -0.1873336 0.052281052
-0.44298762 -0.07572385 -0.49086112 0.94928896 -0.27703142 0.91035557 -0.15688936 1.0973495
0.70956314 1.5451105 0.05867691 -0.0442547 -0.073697284 0.070962206 0.09856267 0.02318409
-0.09102592 0.12908463 -0.07770206 0.07821977 -0.028100297 -0.08433781 0.07004209 0.014011025
0.05219777 0.0021583438 0.00053827465 0.041826323 -0.054395042 0.10032375 0.09694813 -0.009629622
-0.036456212 -0.14024268 0.04779148 0.051125526 -0.08362629 -0.12878814 0.054659978 0.15458436
0.15461887 0.16086726 0.027539909 0.12363805 -0.09983204 -0.008530989 -0.15793665 -0.14217895
-0.09991719 0.04093732 0.08460751 -0.10195011 -1.6701419 -1.9815512 -1.0520968 -1.2943288
-0.9320417 -0.8029089 -0.86255014 -0.93210274 -0.5359195 -0.07747736 -1.1321853 -0.5384971
-1.0271654 -0.6275962 -1.1248918 -1.0768911 -0.57641256 -0.5136423 -0.48461094 -1.4502407
-0.64376813 -1.4539363 -0.31319267 -0.6694705 -0.38289696 -0.5341939 0.33892322 -0.64586115
00000000: 2bfe a23f 1569 5d3f 07ed 653f 499d 543f
00000010: 1024 133f c3c0 93bd a6ab bb3f 1ddc 6a3f
00000020: 6d15 68be 19ff 84bf 046b 333f 84ca cbbe
00000030: 169c 483e 0259 afbe 6565 893f a730 9b3e
00000040: ba88 84be 5955 bcbe 5792 2a3f 606d 5a3f
00000050: 7f58 ccbe da00 ab3e 063d 8f3e 08d2 563e
00000060: 3968 1bbe cb83 a13e 63e6 d2be 21e3 483f
00000070: 2559 bdbe e8cb 743f a1d7 cdbe 84ef 983f
00000080: 91af b03c b55d aa3f c42c 1b3e dffc 5e3c
00000090: 1b23 4ebe 3c76 e03d edf9 a63f 19a6 b43f
000000a0: 10d9 7b3f 15cd 763f 1ae5 123f 1f8d d73e
000000b0: 9cbe 7b3f 4a7b 713f 11a0 bdbd 73c6 88be
000000c0: b118 6f3f d9eb 80bd b868 523f 91e7 3c3e
000000d0: 74db 8a3f 1bab 423f f9d5 0d3e a1da 6c3e
000000e0: 499e 553f d12c ab3f 78fb ba3e 1d37 883f
000000f0: 59e3 9d3e 6ae2 a63e 019d 513d 3a66 9e3e
00000100: e3c8 8cbd c44a d13d c4e4 05bf 132f e2bd
00000110: 5f55 f5be 5a2e ec3e f2f3 06bf 4443 d53e
00000120: 769b 48bc 674c 763d dc0b 2cbc 43a6 353c
00000130: 3729 96bf 2669 afbf 2ad6 6cbf 9014 79bf
00000140: 7772 1bbf b3e7 b4be 27d8 94bf 7a6e 92bf
00000150: 439e 73bc 6e3e 193f b456 12bf bca9 563d
00000160: 9efc 1bbf f2b4 83be d8a8 96bf be82 45bf
00000170: 0771 0a3e 2f12 0bbe 1ebf 84bf 110e ddbf
00000180: e4ee 95bd ed87 7cbf e905 d63c 23fd ddbe
00000190: 0b25 8ebc df6d 87be df70 273f dad2 77bf
000001a0: a7c0 063f 9b0f 25bf 3335 393f e26d 5fbf
000001b0: bd21 453e 373c 9ebf 037f d6bd 1217 82bd
000001c0: 0239 ea3d 65db 4c3d 29f3 1ebe fcb5 163d
000001d0: 48a2 a6bd efec 023e 807f 21bc 7b39 0e3e
000001e0: 414e 01be 3a22 e3bd 805f 73bb 68d5 993d
000001f0: feb2 ef3d c38b 8dbd 9ced 353d 3ff8 24be
00000200: f45a 82bd e879 aabc 782d e2bd bcae 1dbe
00000210: 3ec0 21be d474 203d d1ad f6bd 7c51 1e3d
00000220: 98a7 e93c 7813 053d cbdf 1f3e 860b 30bd
00000230: 3ae9 f4bd dada bb3d 94c8 593d 5bb2 043e
00000240: cd1e 1ebe 20a9 51bc 2e96 04be 4d01 0c3e
00000250: 38a8 a5bc bccf 3cbd c43e 17bd d00d 7bbd
00000260: 40da 393f e0ed c3be 7499 eb3e 4e84 f1be
00000270: 18f9 fb3e 7cb1 12bf 05c9 6a3f 3202 bd3c
00000280: 1323 fcbd 6a35 a9bf ad28 a43e ddeb 25bf
00000290: 20a0 75be 8648 83bf d244 c83e 8db1 18bf
000002a0: 39c0 27bf 4c92 70bf 231f 423e a883 00bf
000002b0: a0fd 41bf b94b 5cbf 61d4 3fbe a824 563d
000002c0: 46cf e2be 1b15 9bbd 2652 fbbe 9a04 733f
000002d0: 10d7 8dbe 100d 693f 9ba7 20be f375 8c3f
000002e0: eea5 353f 2ec6 c53f 3357 703d 6b44 35bd
000002f0: 9aee 96bd a254 913d 3adb c93d 90ec bd3c
00000300: cc6b babd c32e 043e 4222 9fbd b031 a03d
00000310: 9832 e6bc 4db9 acbd 3a72 8f3d 808e 653c
00000320: 54cd 553d 0073 0d3b 001b 0d3a 1452 2b3d
00000330: 56cd 5ebd 8a76 cd3d be8c c63d 90c5 1dbc
00000340: 1c53 15bd c79b 0fbe 00c1 433d 0069 513d
00000350: 4344 abbd 0ae1 03be 24e3 5f3d 5d4b 1e3e
00000360: 6954 1e3e 63ba 243e 609b e13c f235 fd3d
00000370: be74 ccbd 90c5 0bbc 25ba 21be 5c97 11be
00000380: 62a1 ccbd e4ad 273d b446 ad3d 38cb d0bd
00000390: 36c7 d5bf 78a3 fdbf 1cab 86bf 91ac a5bf
000003a0: 499a 6ebf 708b 4dbf 16d0 5cbf 499e 6ebf
000003b0: 0532 09bf 73ac 9ebd 73eb 90bf f2da 09bf
000003c0: 287a 83bf 25aa 20bf 74fc 8fbf 91d7 89bf
000003d0: c68f 13bf 107e 03bf ed1e f8be 7da1 b9bf
000003e0: fdcd 24bf 961a babf ca5a a0be 6b62 2bbf
000003f0: 120b c4be eec0 08bf 5887 ad3e 2857 25bf

hidden1.bias f4 [30]
-0.22602001 0.015898168 0.0016635386 0.10888223 -0.74219453 0.052399904 -0.11761469 -0.019603953
0.054552022 0.100635 0.0107866945 -0.041249007 -0.6863202 0.14117707 0.024929153 0.6010489
0.39290106 0.4326011 -0.05415449 -0.18555938 0.38116097 -0.8262692 -0.66085553 0.063161656
-0.6373556 0.0048758797 0.034737557 -0.6070341 -0.3825083 -0.6392908
00000000: ca71 67be e03c 823c 180b da3a a6fd de3d
00000010: 7600 3ebf 48a1 563d f8df f0bd 7898 a0bc
00000020: f171 5f3d b919 ce3d adba 303c b8f4 28bd
00000030: aeb2 2fbf b990 103e 3938 cc3c 57de 193f
00000040: 542a c93e e47d dd3e 19d1 5dbd 4703 3ebe
00000050: 8827 c33e 6186 53bf d42d 29bf e65a 813d
00000060: bd29 23bf d8c5 9f3b f848 0e3d 9666 1bbf
00000070: 21d8 c3be 90a8 23bf

hidden2.weight f4 [20, 30]
-0.05323644 -0.15862189 -0.051516112 -0.12267096 -0.029522482 0.019469425 0.12387822 0.09921697
-0.07461521 0.085009955 -0.37492886 0.09053222 -0.09759561 -0.16321078 -0.122042544 0.047702495
0.05397252 -0.093797 0.14533404 -0.011508771 0.056508247 -0.15794045 -0.06778195 -0.17940457
0.02438472 0.03262108 -0.44162637 -0.0734772 0.24666488 0.036808006 -0.09424507 -0.022178233
-0.01757358 0.009923711 0.012199894 0.0154282 0.09476477 -0.07369456 0.05038482 -0.10673968
-0.13480347 -0.06294444 -0.15906088 0.16064635 -0.1530419 -0.10310915 -0.043659583 -0.09825762
0.054464176 0.063854784 -0.11682088 -0.038258225 0.08365676 0.054377615 0.17463222 -0.1061785
0.16047579 -0.16115685 -0.02028352 -0.07410793 -0.30765182 -0.006388304 0.07472416 -0.17951378
-0.10329547 0.15552446 0.14128408 -0.00016719103 -0.14470977 0.18362024 0.03165168 0.09486573
-0.15843372 0.020964906 0.13595918 0.09895547 0.15040699 0.056157097 0.06181989 -0.013009241
-0.0091647655 -0.2548988 -0.10868639 -0.0034501553 -0.53036785 0.15454608 -0.10406141 -0.08600154
0.037512455 -0.019143213 -0.16735145 -0.16479282 -0.18643123 -0.009621128 0.11137217 0.12587485
0.0042939624 0.18019184 0.16216803 -0.003036743 0.0947669 0.012482882 -0.009729683 -0.13004662
0.039053783 -0.05125353 0.00483283 0.08270747 0.10359827 0.03285972 -0.14325833 -0.13336532
0.03735884 -0.11695173 0.12804769 -0.05460164 -0.1271327 -0.058385126 -0.034473434 -0.11596579
0.018166188 0.07034295 -0.18177994 -0.17970695 -0.07531328 -0.019607693 -0.18793672 0.1360693
-0.10951801 0.054303918 0.075881705 0.07804444 -0.1463625 0.12728637 0.13105023 -0.097211875
-0.009166696 -0.028817484 -0.016722789 -0.06203609 -0.12224519 0.18324968 0.099578634 -0.04173252
0.028264796 0.1180068 0.060105707 -0.07897352 -0.1298114 -0.1480987 -0.15186736 -0.16056174
-0.19959216 0.0033287406 -0.089124896 -0.11380157 -0.1094376 -0.11391311 0.17132095 -0.1693975
0.049403146 0.036700383 0.07377856 -0.021874428 -0.053162634 0.11634059 -0.09837525 -0.12165001
0.10873836 0.05963525 -0.118599504 -0.15387037 0.03578638 0.061460286 0.0786788 0.055186898
0.06597386 0.13195907 0.016897276 -0.10882712 0.09830036 0.0059657753 0.0587147 0.06908026
0.076850675 0.1589913 -0.056649372 -0.15463814 -0.109685615 0.056171954 0.4057445 0.13027605
0.10677747 0.062897936 0.007685119 -0.11141403 -0.10309261 0.122647114 -0.029887779 0.029798944
0.047356658 0.15399666 0.02835562 0.17401433 0.1792292 -0.003046977 0.14773192 0.049392518
-0.08857156 -0.011124342 -0.09609815 0.0509387 0.14833419 0.11895424 -0.06259426 0.15412486
0.016004791 -0.01746443 0.14963521 0.13068959 -0.18458863 -0.039789684 -0.011860536 -0.005763197
0.07098212 0.004576955 0.1943735 0.17852394 -0.0064840266 0.03504127 0.07753571 -0.16234004
-0.22394662 -0.019275546 -0.20893785 -0.0023992462 -0.215964 -0.065156735 -0.120357044 -0.08143937
-0.015501952 -0.0984863 -0.012951201 -0.03996341 0.09983513 0.17427891 -0.009644702 0.10756612
0.08134252 -0.16229473 -0.20770706 -0.071376085 0.0027300825 0.12294066 -0.05134067 -0.12826148
00000000: 740e 5abd c76d 22be 8f02 53bd ea3a fbbd
00000010: 22d9 f1bc 587e 9f3c ddb3 fd3d 4432 cb3d
00000020: dccf 98bd b319 ae3d adf6 bfbe f568 b93d
00000030: 35e0 c7bd ba20 27be 71f1 f9bd b163 433d
00000040: 4a12 5d3d a418 c0bd 72d2 143e 498f 3cbc
00000050: 3175 673d 24bb 21be 43d1 8abd d5b5 37be
00000060: 77c2 c73c ae9d 053d da1c e2be 377b 96bd
00000070: b895 7c3e fec3 163d 8f03 c1bd 20af b5bc
00000080: 78f6 8fbc 1097 223c 10e2 473c 90c6 7c3c
00000090: 0814 c23d 2ced 96bd 5060 4e3d 559a dabd
000000a0: ec09 0abe 04e9 80bd dbe0 22be 7a80 243e
000000b0: 04b7 1cbe e42a d3bd 64d4 32bd 4b3b c9bd
000000c0: d415 5f3d 4cc6 823d c93f efbd a8b4 1cbd
000000d0: 3c54 ab3d 10bb 5e3d cad2 323e 1d74 d9bd
000000e0: c453 243e 4d06 25be a029 a6bc e6c5 97bd
000000f0: 8a84 9dbe fa54 d1bb fb08 993d 76d2 37be
00000100: 938c d3bd ce41 1f3e c6ac 103e 0050 2fb9
00000110: cc2e 14be f206 3c3e 31a5 013d f748 c23d
00000120: 733c 22be 98be ab3c e238 0b3e 2aa9 ca3d
00000130: 4a04 1a3e fc04 663d da36 7d3d b624 55bc
00000140: d027 16bc 1882 82be f896 debd 001c 62bb
00000150: 30c6 07bf 5441 1e3e 261e d5bd 9321 b0bd
00000160: a9a6 193d 3ad2 9cbc 2e5e 2bbe 73bf 28be
00000170: d4e7 3ebe f0a1 1dbc 1817 e43d 56e5 003e
00000180: 5eb4 8c3b 3684 383e 600f 263e 1804 47bb
00000190: 2615 c23d 0085 4c3c 4069 1fbc f12a 05be
000001a0: dcf6 1f3d 39ef 51bd b75c 9e3b 8962 a93d
000001b0: 542b d43d ea97 063d 50b2 12be eb90 08be
000001c0: 9505 193d 6384 efbd ef1e 033e f8a5 5fbd
000001d0: 132f 02be 3e25 6fbd 0434 0dbd 797f edbd
000001e0: 42d1 943c f70f 903d 8524 3abe 1905 38be
000001f0: d93d 9abd 50a0 a0bc 7c72 40be c055 0b3e
00000200: fa4a e0bd c96d 5e3d de67 9b3d c3d5 9f3d
00000210: 0de0 15be 5c57 023e 0832 063e 0517 c7bd
00000220: e92f 16bc a512 ecbc 3bfe 88bc 8e19 7ebd
00000230: b05b fabd cea5 3b3e e2ef cb3d b8ef 2abd
00000240: 938b e73c 8dad f13d 6731 763d debc a1bd
00000250: 48ed 04be 30a7 17be 1e83 1bbe 4c6a 24be
00000260: e361 4cbe 0027 5a3b 1d87 b6bd cc10 e9bd
00000270: d220 e0bd 474b e9bd c26e 2f3e 8a76 2dbe
00000280: f45a 4a3d 2453 163d 3719 973d 0032 b3bc
00000290: 10c1 59bd fa43 ee3d f778 c9bd a423 f9bd
000002a0: 38b2 de3d 1844 743d 4ce4 f2bd 3290 1dbe
000002b0: bd94 123d c8bd 7b3d 5a22 a13d a80b 623d
000002c0: 4e1d 873d 4720 073e 286c 8a3c c1e0 debd
000002d0: b351 c93d 8d7c c33b d37e 703d f479 8d3d
000002e0: e363 9d3d 9ece 223e 2c09 68bd 7659 1ebe
000002f0: daa2 e0bd 9014 663d bebd cf3e 1667 053e
00000300: 25ae da3d a2d0 803d 73d3 fb3b 0a2d e4bd
00000310: 3822 d3bd 692e fb3d 37d7 f4bc ea1c f43c
00000320: 0ef9 413d 4db1 1d3e 0c4a e83c d030 323e
00000330: dc87 373e cbaf 47bb 0947 173e cf4f 4a3d
00000340: 0265 b5bd df42 36bc 1bcf c4bd 19a5 503d
00000350: ebe4 173e 489e f33d 6b31 80bd e8d2 1d3e
00000360: 7b1c 833c 9011 8fbc f939 193e 7ed3 053e
00000370: cd04 3dbe 82fa 22bd b252 42bc 33d9 bcbb
00000380: 135f 913d 48fa 953b d909 473e fbce 363e
00000390: f577 d4bb 6f87 0f3d 0bcb 9e3d 783c 26be
000003a0: 4352 65be c0e7 9dbc cef3 55be ac3c 1dbb
000003b0: ab25 5dbe e570 85bd c17d f6bd afc9 a6bd
000003c0: e6fb 7dbc 2fb3 c9bd 4631 54bc acb0 23bd
000003d0: 5c76 cc3d 2c76 323e d004 1ebc a04b dc3d
000003e0: e896 a63d 9730 26be 29b1 54be a02d 92bd
000003f0: 2feb 323b 50c8 fb3d 984a 52bd fa56 03be

hidden2.bias f4 [20]
0.5290077 -0.14801784 -0.07195625 -0.20919359 -0.21117482 -0.11568409 -0.679484 0.78706557
-0.12618801 0.48658898 0.057659645 0.5615473 0.50155735 -0.009537354 -0.11117263 -0.1583039
0.056176778 -0.035366677 -0.10459722 -0.30857986
00000000: 0c6d 073f fd91 17be cc5d 93bd d836 56be
00000010: 363e 58be c8eb ecbd aaf2 2dbf 217d 493f
00000020: 6e37 01be 3122 f93e 852c 6c3d 90c1 0f3f
00000030: 1066 003f 9042 1cbc 7aae e3bd 6b1a 22be
00000040: 9f19 663d a6dc 10bd 1137 d6bd 2efe 9dbe

output.weight f4 [3, 20]
0.10120475 0.014966652 0.28498515 -0.09337639 -0.06817481 0.08292595 0.16824448 -0.18361087
0.019806914 0.006530223 0.19362621 -0.27519664 -0.03279881 0.044995606 -0.116855524 0.15343188
-0.11542433 -0.16557226 0.16457582 -0.028498998 0.14369924 -0.004199043 0.122669384 0.1441311
-0.05917214 -0.044975877 0.03008787 0.052921735 -0.08098319 0.0073935757 0.11422415 0.10382717
-0.17176355 0.14572936 0.0146130435 -0.01563062 -0.12690373 0.02384753 -0.044147596 0.1379832
0.18956375 0.07747331 -0.13681555 0.1155387 -0.105644375 0.123655505 -0.050545763 0.121409446
-0.11698062 0.017626302 0.0782084 0.118994705 -0.055359267 0.0280492 -0.17357367 -0.073774755
0.10685581 -0.25343665 0.035545915 -0.101882495
00000000: 7044 cf3d b036 753c 93e9 913e 1f3c bfbd
00000010: 3c9f 8bbd 15d5 a93d 4848 2c3e 7d04 3cbe
00000020: 1c42 a23c 7bfb d53b f345 463e 93e6 8cbe
00000030: 0c58 06bd 504d 383d f351 efbd 3f1d 1d3e
00000040: 9763 ecbd c68b 29be 9086 283e bb76 e9bc
00000050: e525 133e 2098 89bb 163a fb3d 1a97 133e
00000060: 7c5e 72bd a038 38bd d67a f63c 76c4 583d
00000070: 84da a5bd cf45 f23b 5aee e93d 57a3 d43d
00000080: c9e2 2fbe 143a 153e 8c6b 6f3c c90b 80bc
00000090: 0df3 01be e55b c33c 1cd4 34bd 784b 0d3e
000000a0: 001d 423e 54aa 9e3d 6019 0cbe 8e9f ec3d
000000b0: 145c d8bd 193f fd3d 1309 4fbd 84a5 f83d
000000c0: 8993 efbd 0965 903c ba2b a03d 7fb3 f33d
000000d0: 66c0 62bd 70c7 e53c 4cbd 31be 3817 97bd
000000e0: 38d7 da3d 73c2 81be 9898 113d c5a7 d0bd

output.bias f4 [3]
-0.47428703 -0.036572084 1.0206054
00000000: c0d5 f2be 9ccc 15bd 33a3 823f
